…
 [17.         18.19777187 17.26754456]
 [17.         21.03444153 18.35996361]] 30
doseMaps
doseMaps
/linux/meghislain/ARIES-RL/stable_baselines3/common/vec_env/patch_gym.py:49: UserWarning: You provided an OpenAI Gym environment. We strongly recommend transitioning to Gymnasium environments. Stable-Baselines3 is automatically wrapping your environments in a compatibility layer, which could potentially cause issues.
  warnings.warn(
MultiInputPolicy(
  (q_net): QNetwork(
    (features_extractor): Custom_CombinedExtractor(
      (extractors): ModuleDict(
        (doseMaps): Custom_CNN(
          (cnn): Sequential(
            (0): Conv2d(3, 16, kernel_size=(3, 3), stride=(1, 1))
            (1): ReLU()
            (2): Conv2d(16, 32, kernel_size=(3, 3), stride=(1, 1))
            (3): ReLU()
            (4): Conv2d(32, 64, kernel_size=(3, 3), stride=(1, 1))
            (5): ReLU()
            (6): Conv2d(64, 64, kernel_size=(3, 3), stride=(1, 1))
            (7): ReLU()
            (8): Flatten(start_dim=1, end_dim=-1)
          )
          (linear): Sequential(
            (0): Linear(in_features=43264, out_features=256, bias=True)
            (1): ReLU()
          )
        )
      )
    )
    (q_net): Sequential(
      (0): Linear(in_features=256, out_features=128, bias=True)
      (1): ReLU()
      (2): Linear(in_features=128, out_features=64, bias=True)
      (3): ReLU()
      (4): Linear(in_features=64, out_features=32, bias=True)
      (5): ReLU()
      (6): Linear(in_features=32, out_features=6, bias=True)
    )
  )
  (q_net_target): QNetwork(
    (features_extractor): Custom_CombinedExtractor(
      (extractors): ModuleDict(
        (doseMaps): Custom_CNN(
          (cnn): Sequential(
            (0): Conv2d(3, 16, kernel_size=(3, 3), stride=(1, 1))
            (1): ReLU()
            (2): Conv2d(16, 32, kernel_size=(3, 3), stride=(1, 1))
            (3): ReLU()
            (4): Conv2d(32, 64, kernel_size=(3, 3), stride=(1, 1))
            (5): ReLU()
            (6): Conv2d(64, 64, kernel_size=(3, 3), stride=(1, 1))
            (7): ReLU()
            (8): Flatten(start_dim=1, end_dim=-1)
          )
          (linear): Sequential(
            (0): Linear(in_features=43264, out_features=256, bias=True)
            (1): ReLU()
          )
        )
      )
    )
    (q_net): Sequential(
      (0): Linear(in_features=256, out_features=128, bias=True)
      (1): ReLU()
      (2): Linear(in_features=128, out_features=64, bias=True)
      (3): ReLU()
      (4): Linear(in_features=64, out_features=32, bias=True)
      (5): ReLU()
      (6): Linear(in_features=32, out_features=6, bias=True)
    )
  )
)
epoch number :  0
training mode :  0 [17.         20.57991482 18.03219942]
training mode :  1 [17.         18.58629325 17.38022898]
training mode :  2 [17.         17.30822359 17.06326903]
training mode :  3 [17.         20.32038984 17.95458636]
training mode :  4 [17.         16.69621221 16.95164464]
training mode :  5 [17.         20.61331443 17.99512994]
…
