[[0.01917244 0.1001197  0.01917244]
 [0.1001197  0.52283142 0.1001197 ]
 [0.01917244 0.1001197  0.01917244]]
 training :  [[… 40
 validation :  [[… 30
[[0.01917244 0.1001197  0.01917244]
 [0.1001197  0.52283142 0.1001197 ]
 [0.01917244 0.1001197  0.01917244]]
 training :  [[… 40
 validation :  [[… 30
doseMaps
incert
doseMaps
incert
MultiInputPolicy(
  (q_net): QNetwork(
    (features_extractor): Custom_CombinedExtractor(
      (extractors): ModuleDict(
        (doseMaps): Custom_CNN(
          (cnn): Sequential(
            (0): Conv2d(1, 16, kernel_size=(3, 3), stride=(1, 1))
            (1): ReLU()
            (2): Conv2d(16, 32, kernel_size=(3, 3), stride=(1, 1))
            (3): ReLU()
            (4): Conv2d(32, 64, kernel_size=(3, 3), stride=(1, 1))
            (5): ReLU()
            (6): Conv2d(64, 128, kernel_size=(3, 3), stride=(1, 1))
            (7): ReLU()
            (8): Conv2d(128, 128, kernel_size=(3, 3), stride=(1, 1))
            (9): ReLU()
            (10): Flatten(start_dim=1, end_dim=-1)
          )
          (linear): Sequential(
            (0): Linear(in_features=100352, out_features=256, bias=True)
            (1): ReLU()
          )
        )
        (incert): Custom_CNN(
          (cnn): Sequential(
            (0): Conv2d(2, 16, kernel_size=(3, 3), stride=(1, 1))
            (1): ReLU()
            (2): Conv2d(16, 32, kernel_size=(3, 3), stride=(1, 1))
            (3): ReLU()
            (4): Conv2d(32, 64, kernel_size=(3, 3), stride=(1, 1))
            (5): ReLU()
            (6): Conv2d(64, 128, kernel_size=(3, 3), stride=(1, 1))
            (7): ReLU()
            (8): Conv2d(128, 128, kernel_size=(3, 3), stride=(1, 1))
            (9): ReLU()
            (10): Flatten(start_dim=1, end_dim=-1)
          )
          (linear): Sequential(
            (0): Linear(in_features=100352, out_features=256, bias=True)
            (1): ReLU()
          )
        )
      )
    )
    (q_net): Sequential(
      (0): Linear(in_features=512, out_features=128, bias=True)
      (1): ReLU()
      (2): Linear(in_features=128, out_features=64, bias=True)
      (3): ReLU()
      (4): Linear(in_features=64, out_features=32, bias=True)
      (5): ReLU()
      (6): Linear(in_features=32, out_features=6, bias=True)
    )
  )
  (q_net_target): QNetwork(
    (features_extractor): Custom_CombinedExtractor(
      (extractors): ModuleDict(
        (doseMaps): Custom_CNN(
          (cnn): Sequential(
            (0): Conv2d(1, 16, kernel_size=(3, 3), stride=(1, 1))
            (1): ReLU()
            (2): Conv2d(16, 32, kernel_size=(3, 3), stride=(1, 1))
            (3): ReLU()
            (4): Conv2d(32, 64, kernel_size=(3, 3), stride=(1, 1))
            (5): ReLU()
            (6): Conv2d(64, 128, kernel_size=(3, 3), stride=(1, 1))
            (7): ReLU()
            (8): Conv2d(128, 128, kernel_size=(3, 3), stride=(1, 1))
            (9): ReLU()
            (10): Flatten(start_dim=1, end_dim=-1)
          )
          (linear): Sequential(
            (0): Linear(in_features=100352, out_features=256, bias=True)
            (1): ReLU()
          )
        )
        (incert): Custom_CNN(
          (cnn): Sequential(
            (0): Conv2d(2, 16, kernel_size=(3, 3), stride=(1, 1))
            (1): ReLU()
            (2): Conv2d(16, 32, kernel_size=(3, 3), stride=(1, 1))
            (3): ReLU()
            (4): Conv2d(32, 64, kernel_size=(3, 3), stride=(1, 1))
            (5): ReLU()
            (6): Conv2d(64, 128, kernel_size=(3, 3), stride=(1, 1))
            (7): ReLU()
            (8): Conv2d(128, 128, kernel_size=(3, 3), stride=(1, 1))
            (9): ReLU()
            (10): Flatten(start_dim=1, end_dim=-1)
          )
          (linear): Sequential(
            (0): Linear(in_features=100352, out_features=256, bias=True)
            (1): ReLU()
          )
        )
      )
    )
    (q_net): Sequential(
      (0): Linear(in_features=512, out_features=128, bias=True)
      (1): ReLU()
      (2): Linear(in_features=128, out_features=64, bias=True)
      (3): ReLU()
      (4): Linear(in_features=64, out_features=32, bias=True)
      (5): ReLU()
      (6): Linear(in_features=32, out_features=6, bias=True)
    )
  )
)
epoch number :  0
training mode :  0 [16.62798806 18.37783764]
0
1
2
3
4
5
6
7
8
9
10
11
12
13
14
15
16
17
18
19
20
21
22
23
24
25
26
27
28
29
30
31
32
33
34
35
36
37
38
39
40
41
42
43
44
45
46
47
48
49
50
51
52
53
54
55
56
57
58
59
60
61
62
63
64
65
66
67
68
69
70
71
72
73
74
75
76
77
78
79
80
81
82
83
84
85
86
87
88
89
90
91
92
93
94
95
96
97
…
