[[… New directory created to save the data:  /linux/meghislain/Results-RL//30_11_DQ2_tarSize5_SL900
 training :  [[… 40
 validation :  [[… 30
[[… training :  [[… 40
 validation :  [[… 30
doseMaps
incert
doseMaps
incert
MultiInputPolicy(
  (q_net): QNetwork(
    (features_extractor): Custom_CombinedExtractor(
      (extractors): ModuleDict(
        (doseMaps): Custom_CNN(
          (cnn): Sequential(
            (0): Conv2d(1, 16, kernel_size=(3, 3), stride=(1, 1))
            (1): ReLU()
            (2): Conv2d(16, 32, kernel_size=(3, 3), stride=(1, 1))
            (3): ReLU()
            (4): Conv2d(32, 64, kernel_size=(3, 3), stride=(1, 1))
            (5): ReLU()
            (6): Conv2d(64, 128, kernel_size=(3, 3), stride=(1, 1))
            (7): ReLU()
            (8): Conv2d(128, 128, kernel_size=(3, 3), stride=(1, 1))
            (9): ReLU()
            (10): Flatten(start_dim=1, end_dim=-1)
          )
          (linear): Sequential(
            (0): Linear(in_features=115200, out_features=256, bias=True)
            (1): ReLU()
          )
        )
        (incert): Custom_CNN(
          (cnn): Sequential(
            (0): Conv2d(2, 16, kernel_size=(3, 3), stride=(1, 1))
            (1): ReLU()
            (2): Conv2d(16, 32, kernel_size=(3, 3), stride=(1, 1))
            (3): ReLU()
            (4): Conv2d(32, 64, kernel_size=(3, 3), stride=(1, 1))
            (5): ReLU()
            (6): Conv2d(64, 128, kernel_size=(3, 3), stride=(1, 1))
            (7): ReLU()
            (8): Conv2d(128, 128, kernel_size=(3, 3), stride=(1, 1))
            (9): ReLU()
            (10): Flatten(start_dim=1, end_dim=-1)
          )
          (linear): Sequential(
            (0): Linear(in_features=115200, out_features=256, bias=True)
            (1): ReLU()
          )
        )
      )
    )
    (q_net): Sequential(
      (0): Linear(in_features=512, out_features=128, bias=True)
      (1): ReLU()
      (2): Linear(in_features=128, out_features=64, bias=True)
      (3): ReLU()
      (4): Linear(in_features=64, out_features=32, bias=True)
      (5): ReLU()
      (6): Linear(in_features=32, out_features=6, bias=True)
    )
  )
  (q_net_target): QNetwork(
    (features_extractor): Custom_CombinedExtractor(
      (extractors): ModuleDict(
        (doseMaps): Custom_CNN(
          (cnn): Sequential(
            (0): Conv2d(1, 16, kernel_size=(3, 3), stride=(1, 1))
            (1): ReLU()
            (2): Conv2d(16, 32, kernel_size=(3, 3), stride=(1, 1))
            (3): ReLU()
            (4): Conv2d(32, 64, kernel_size=(3, 3), stride=(1, 1))
            (5): ReLU()
            (6): Conv2d(64, 128, kernel_size=(3, 3), stride=(1, 1))
            (7): ReLU()
            (8): Conv2d(128, 128, kernel_size=(3, 3), stride=(1, 1))
            (9): ReLU()
            (10): Flatten(start_dim=1, end_dim=-1)
          )
          (linear): Sequential(
            (0): Linear(in_features=115200, out_features=256, bias=True)
            (1): ReLU()
          )
        )
        (incert): Custom_CNN(
          (cnn): Sequential(
            (0): Conv2d(2, 16, kernel_size=(3, 3), stride=(1, 1))
            (1): ReLU()
            (2): Conv2d(16, 32, kernel_size=(3, 3), stride=(1, 1))
            (3): ReLU()
            (4): Conv2d(32, 64, kernel_size=(3, 3), stride=(1, 1))
            (5): ReLU()
            (6): Conv2d(64, 128, kernel_size=(3, 3), stride=(1, 1))
            (7): ReLU()
            (8): Conv2d(128, 128, kernel_size=(3, 3), stride=(1, 1))
            (9): ReLU()
            (10): Flatten(start_dim=1, end_dim=-1)
          )
          (linear): Sequential(
            (0): Linear(in_features=115200, out_features=256, bias=True)
            (1): ReLU()
          )
        )
      )
    )
    (q_net): Sequential(
      (0): Linear(in_features=512, out_features=128, bias=True)
      (1): ReLU()
      (2): Linear(in_features=128, out_features=64, bias=True)
      (3): ReLU()
      (4): Linear(in_features=64, out_features=32, bias=True)
      (5): ReLU()
      (6): Linear(in_features=32, out_features=6, bias=True)
    )
  )
)
epoch number :  0
/linux/meghislain/ARIES-RL/stable_baselines3/common/vec_env/patch_gym.py:49: UserWarning: You provided an OpenAI Gym environment. We strongly recommend transitioning to Gymnasium environments. Stable-Baselines3 is automatically wrapping your environments in a compatibility layer, which could potentially cause issues.
  warnings.warn(
…
