[[0.01917244 0.1001197  0.01917244]
 [0.1001197  0.52283142 0.1001197 ]
 [0.01917244 0.1001197  0.01917244]]
 training :  [[… 40
 validation :  [[… 30
[[0.01917244 0.1001197  0.01917244]
 [0.1001197  0.52283142 0.1001197 ]
 [0.01917244 0.1001197  0.01917244]]
 training :  [[… 40
 validation :  [[… 30
MultiInputPolicy(
  (q_net): QNetwork(
    (features_extractor): CombinedExtractor(
      (extractors): ModuleDict(
        (doseMaps): NatureCNN(
          (cnn): Sequential(
            (0): Conv2d(1, 16, kernel_size=(3, 3), stride=(1, 1))
            (1): ReLU()
            (2): Conv2d(16, 32, kernel_size=(3, 3), stride=(1, 1))
            (3): ReLU()
            (4): Conv2d(32, 64, kernel_size=(3, 3), stride=(1, 1))
            (5): ReLU()
            (6): Conv2d(64, 128, kernel_size=(3, 3), stride=(1, 1))
            (7): ReLU()
            (8): Conv2d(128, 128, kernel_size=(3, 3), stride=(1, 1))
            (9): ReLU()
            (10): Flatten(start_dim=1, end_dim=-1)
          )
          (linear): Sequential(
            (0): Linear(in_features=100352, out_features=256, bias=True)
            (1): ReLU()
          )
        )
        (incert): NatureCNN(
          (cnn): Sequential(
            (0): Conv2d(2, 16, kernel_size=(3, 3), stride=(1, 1))
            (1): ReLU()
            (2): Conv2d(16, 32, kernel_size=(3, 3), stride=(1, 1))
            (3): ReLU()
            (4): Conv2d(32, 64, kernel_size=(3, 3), stride=(1, 1))
            (5): ReLU()
            (6): Conv2d(64, 128, kernel_size=(3, 3), stride=(1, 1))
            (7): ReLU()
            (8): Conv2d(128, 128, kernel_size=(3, 3), stride=(1, 1))
            (9): ReLU()
            (10): Flatten(start_dim=1, end_dim=-1)
          )
          (linear): Sequential(
            (0): Linear(in_features=100352, out_features=256, bias=True)
            (1): ReLU()
          )
        )
      )
    )
    (q_net): Sequential(
      (0): Linear(in_features=512, out_features=128, bias=True)
      (1): ReLU()
      (2): Linear(in_features=128, out_features=64, bias=True)
      (3): ReLU()
      (4): Linear(in_features=64, out_features=32, bias=True)
      (5): ReLU()
      (6): Linear(in_features=32, out_features=6, bias=True)
    )
  )
  (q_net_target): QNetwork(
    (features_extractor): CombinedExtractor(
      (extractors): ModuleDict(
        (doseMaps): NatureCNN(
          (cnn): Sequential(
            (0): Conv2d(1, 16, kernel_size=(3, 3), stride=(1, 1))
            (1): ReLU()
            (2): Conv2d(16, 32, kernel_size=(3, 3), stride=(1, 1))
            (3): ReLU()
            (4): Conv2d(32, 64, kernel_size=(3, 3), stride=(1, 1))
            (5): ReLU()
            (6): Conv2d(64, 128, kernel_size=(3, 3), stride=(1, 1))
            (7): ReLU()
            (8): Conv2d(128, 128, kernel_size=(3, 3), stride=(1, 1))
            (9): ReLU()
            (10): Flatten(start_dim=1, end_dim=-1)
          )
          (linear): Sequential(
            (0): Linear(in_features=100352, out_features=256, bias=True)
            (1): ReLU()
          )
        )
        (incert): NatureCNN(
          (cnn): Sequential(
            (0): Conv2d(2, 16, kernel_size=(3, 3), stride=(1, 1))
            (1): ReLU()
            (2): Conv2d(16, 32, kernel_size=(3, 3), stride=(1, 1))
            (3): ReLU()
            (4): Conv2d(32, 64, kernel_size=(3, 3), stride=(1, 1))
            (5): ReLU()
            (6): Conv2d(64, 128, kernel_size=(3, 3), stride=(1, 1))
            (7): ReLU()
            (8): Conv2d(128, 128, kernel_size=(3, 3), stride=(1, 1))
            (9): ReLU()
            (10): Flatten(start_dim=1, end_dim=-1)
          )
          (linear): Sequential(
            (0): Linear(in_features=100352, out_features=256, bias=True)
            (1): ReLU()
          )
        )
      )
    )
    (q_net): Sequential(
      (0): Linear(in_features=512, out_features=128, bias=True)
      (1): ReLU()
      (2): Linear(in_features=128, out_features=64, bias=True)
      (3): ReLU()
      (4): Linear(in_features=64, out_features=32, bias=True)
      (5): ReLU()
      (6): Linear(in_features=32, out_features=6, bias=True)
    )
  )
)
epoch number :  0
training mode :  0 [16.62798806 18.37783764]
training mode :  1 [22.9435995  20.17829537]
/linux/meghislain/ARIES-RL/stable_baselines3/common/vec_env/patch_gym.py:49: UserWarning: You provided an OpenAI Gym environment. We strongly recommend transitioning to Gymnasium environments. Stable-Baselines3 is automatically wrapping your environments in a compatibility layer, which could potentially cause issues.
…
